home/punch_classifier.pth (torch, 4696 bytes, 4 tensors)

fc1.weight f4 [32, 16]
000000 1c 14 85 3d 56 6d 42 be 84 ad c0 3d 38 84 4e bd
       0.06497976 -0.18987021 0.094080955 -0.050419062
000010 00 65 64 3c 00 4e 49 3c 50 df c0 bd 6e f5 14 3e
       0.013940096 0.012286663 -0.094175935 0.14546749
000020 e0 46 47 bd 68 68 44 bd 30 3f 50 3d a0 58 14 3c
       -0.048651576 -0.047951132 0.05084151 0.009054333
000030 e8 ba 99 3d 40 b7 63 be c0 90 bc 3b 16 2f 33 be
       0.07506353 -0.22237873 0.00575456 -0.1749843
000040 b5 99 15 be 30 b2 3d 3e 10 bc 6f 3d 98 d6 40 3e
       -0.14609416 0.18525004 0.05852896 0.18831861
000050 a7 a0 36 bb 7e f7 53 be 1f 1a 42 be 2c 8b df 3d
       -0.0027866752 -0.2069988 -0.18955277 0.10915217
000060 c2 3f 8a be 01 9a f5 3d 39 c6 87 3d c2 47 6a be
       -0.27001768 0.119922645 0.06629605 -0.22878936
000070 52 43 28 be 3e 6e b2 bc 23 e1 fb bd fc 23 34 3e
       -0.1643193 -0.021781083 -0.12298801 0.17591852
000080 40 6b 72 bc ee 0d 13 3e 60 8d b7 bc 08 1f 8d bd
       -0.014796078 0.14360783 -0.02240628 -0.06890684
000090 c0 a8 b8 3b 60 81 41 3c b8 1a 70 be 90 1d 28 bd
       0.005635351 0.011810631 -0.23447692 -0.041043818
0000a0 5e 1f 25 be c8 62 30 3e d4 42 85 3d 72 e0 3f be
       -0.16125247 0.17225182 0.06506887 -0.18737963
0000b0 d0 52 cf bd 44 1c c4 3d a0 bb e0 3c f8 65 44 3d
       -0.10123217 0.09575704 0.027433217 0.047948807
0000c0 ac da 03 3e 7a 56 43 3e fa d0 65 be fa 10 13 be
       0.12876385 0.19075957 -0.22443 -0.14361945
0000d0 1c 60 d9 bd 50 e8 18 be 80 3b dd 3c 88 95 bc bd
       -0.106140345 -0.1493237 0.02700591 -0.09208208
0000e0 fe 3b 24 be 22 b3 2c be 76 4b 09 be 92 c8 21 3e
       -0.1603851 -0.16865209 -0.13407692 0.15799168
0000f0 28 3e ac bd d2 fa 25 be 5e c1 62 3e 90 24 8e 3c
       -0.08410293 -0.16208962 0.22144076 0.017351419
000100 72 f5 54 be 78 66 9d bd 42 2e 37 be 54 06 de bd
       -0.20796755 -0.0768556 -0.1788874 -0.10841051
000110 40 3a 1e 3c e0 fb 73 3d 4a 2f 41 3e b2 e8 1d be
       0.009657443 0.05956638 0.18865696 -0.15420797
000120 6a 0d 60 3e 00 2e b4 3a 50 8f 19 3d f6 35 4a be
       0.21880117 0.0013746619 0.03749019 -0.19747147
000130 de 69 6c be 00 05 c0 3a 18 9e 03 bd 84 b3 88 3d
       -0.2308726 0.0014649928 -0.03213319 0.06674865
000140 c1 b4 41 be 6f 83 4a 3e 37 f5 8d 3d 5e 16 b1 bd
       -0.18916608 0.197767 0.06931537 -0.08646844
000150 e9 ae 08 be 68 14 0a 3a f3 fd 09 3e e0 e4 16 be
       -0.13347973 0.0005267323 0.1347578 -0.14735746
000160 fb c5 fe 3d 9d b7 33 3c 0a fa 3f be 15 3c 4a be
       0.124401055 0.01096907 -0.18747726 -0.19749482
000170 be 56 64 3d 9e b5 b3 bb 0e 11 6c 3e d9 4d 06 be
       0.055746786 -0.005484297 0.23053381 -0.13115634
000180 74 25 99 bd 7a 08 29 3c 1a 4f a7 bd d9 a8 f2 3d
       -0.07477847 0.010316962 -0.08169384 0.118486114
000190 32 41 18 bf cb 65 2c bd 83 c4 8d 3a bf 4a 78 be
       -0.5947448 -0.042089265 0.0010816011 -0.24247263
0001a0 66 7b 8b 3e 3f 76 e3 bd 6d 8a 59 be 92 1d ac 3d
       0.27242583 -0.11106538 -0.21244211 0.084040776
0001b0 ed 45 a9 3e ae e2 c1 3b 71 64 59 3d 07 ce 2d bd
       0.33061162 0.005916915 0.053074304 -0.04243281
0001c0 0a 74 9b 3e 3a a9 c5 3d 68 30 de 3b 9e c0 e5 3d
       0.30361968 0.09651418 0.006780673 0.112183794
0001d0 f9 d2 36 bd 33 d1 32 be c0 6d b5 bd c5 50 72 3d
       -0.044634793 -0.17462616 -0.08858824 0.05915906
0001e0 00 4c 3e bd d0 fa 4e be 34 77 99 be a0 3d c8 be
       -0.046459198 -0.20212865 -0.29973757 -0.39109516
0001f0 6c 0a 48 be 55 6f 78 3e f4 1e 25 3c b0 02 69 3e
       -0.19535226 0.2426122 0.010078181 0.22754931
000200 f1 b6 9c 3d 8d dd 85 bc b3 e2 f8 bd c5 7f 52 bc
       0.07652081 -0.016340995 -0.121526144 -0.012847845
000210 db f9 82 be 5c 1c 15 bd 5c 3a 57 be e1 1c 7d 3e
       -0.2558125 -0.036404 -0.21018356 0.24718048
000220 74 a3 b4 bd f3 de 58 3e 51 48 d1 bd 65 7f b9 bd
       -0.08820239 0.21178798 -0.102188714 -0.09057502
000230 85 34 c4 bd 73 92 0e 3c bb 26 1d 3e 9c d0 3a 3e
       -0.0958033 0.008701908 0.15346806 0.1824364
000240 0d 2f 2c 3e 50 97 62 bd ec 56 b0 3d db 8d 9f be
       0.16814823 -0.055320084 0.08610329 -0.31162915
000250 c2 83 8c 3d 9c 94 03 3e cd 06 af 3d e5 ff 52 be
       0.06861068 0.12849659 0.08546219 -0.20605429
000260 7c 4e ec bc b7 7c 19 3c 51 1c f1 bb 3a e8 93 3d
       -0.028846018 0.009368113 -0.007358112 0.07222028
000270 c5 f9 34 3d 09 ce 89 be 25 28 9d be 1c 57 cb bc
       0.04418351 -0.26915005 -0.3069469 -0.02482181
000280 99 05 ee bd b6 17 a7 bd 99 71 2f 3e c0 39 90 be
       -0.116221614 -0.081588194 0.17133178 -0.2816906
000290 82 f8 03 3e 6c a4 0f be 5e 87 fe 3d 5a a8 e3 bd
       0.12887767 -0.14027566 0.12428163 -0.11116095
0002a0 4d 0a 15 3e df 71 02 be ac 31 97 3d 97 22 04 be
       0.1455471 -0.12738751 0.07382521 -0.1290382
0002b0 92 c8 15 be 4f 81 b4 3d c8 ae e1 3d 4c 82 91 3c
       -0.14627293 0.08813726 0.11019665 0.017762326
0002c0 96 d8 72 bc 78 4b 18 3e 60 9e b7 3c a3 2c d0 ba
       -0.014822146 0.14872539 0.022414386 -0.0015882443
0002d0 61 11 e2 bd b9 ac 39 3d 75 ed 61 be 7b da a6 bd
       -0.11038471 0.045330737 -0.22063239 -0.081471406
0002e0 78 4c 0d 3e 49 76 94 3d ab a9 3e bd 7b ab 1d be
       0.13798702 0.072491236 -0.046548527 -0.15397446
0002f0 7b 92 27 3e 9c 51 83 be 54 66 55 be 1e 33 fc 3c
       0.16364472 -0.256482 -0.20839816 0.030786093
000300 55 73 30 3e e1 80 15 bd 16 d5 a2 be 5a bc 34 be
       0.17231496 -0.03649986 -0.31803197 -0.17649975
000310 e9 32 b7 3d 4e d2 2b 3d ce 86 1c 3a d6 a4 b7 3d
       0.08945257 0.04194861 0.0005971015 0.08966987
000320 c6 54 63 3e 77 e4 39 3e 47 1a 57 be 0d 98 89 be
       0.22200307 0.18153559 -0.21006118 -0.26873818
000330 a9 16 c2 bd e1 5e bd 3d 19 2f 75 be 6d 01 f8 3d
       -0.09476978 0.09246612 -0.23943748 0.12109647
000340 ff 60 af 3d a2 7d 39 be f5 a2 73 be ef b5 4e 3d
       0.085634224 -0.18114331 -0.23792632 0.050466474
000350 86 21 b9 3c fd b3 9b 3d cf 72 10 3d a0 4e 57 be
       0.022598993 0.076026894 0.03526574 -0.21026087
000360 4d 4b 88 be 27 b0 ea bd a8 53 82 be 72 a6 4f 3e
       -0.2661995 -0.1145938 -0.2545445 0.20278338
000370 46 a4 2f 3d 67 e9 a6 bb ef a2 14 3d 6b ca 24 3e
       0.042881273 -0.0050937417 0.036288198 0.16092841
000380 b0 28 92 3d a0 10 20 3e c0 ad b3 3c 88 5f 7e bd
       0.07136667 0.15631342 0.021933436 -0.062102824
000390 96 73 4f be 5a 88 4a be 4a b2 21 be 7e 37 6c 3e
       -0.20258936 -0.19778576 -0.15790668 0.23068044
0003a0 82 49 56 be 30 3f 07 be e0 de d7 3d 08 df 5f 3d
       -0.20926479 -0.13207698 0.10540557 0.05465606
0003b0 04 4e 1c 3e e4 0a ee 3d 8e 12 31 be 18 24 01 be
       0.15264136 0.11623171 -0.17292234 -0.12611425
0003c0 86 4e 41 3d 08 65 fd 3d 2c c5 c3 3d 11 e9 55 be
       0.047194026 0.12372786 0.09559092 -0.20889689
0003d0 3c 61 3e 3f e5 da 44 3e 9d 6a b4 3e 60 74 62 bf
       0.7436712 0.19224127 0.3523759 -0.88458824
0003e0 d7 64 d3 bd 4a bf 7c bd d1 94 b6 bd 31 82 21 3e
       -0.10321968 -0.061705865 -0.08915103 0.1577232
0003f0 5c 9a ac be 2e 91 64 be c2 2a 5b 3d 5f a9 ea 3d
       -0.33711517 -0.22321007 0.053507574 0.11458086

fc1.bias f4 [32]
000000 04 77 33 be e3 a0 2e be a0 4e 1b 3d 14 a4 ba 3d
       -0.1752587 -0.17053561 0.03791678 0.09113327
000010 f2 09 38 be 35 d5 21 be 4a 75 fd 3d 96 0d d7 bd
       -0.17972544 -0.15803988 0.12375887 -0.10500638
000020 ef 02 7d 3e 98 36 21 be d4 5a a8 be c2 ba a2 3d
       0.2470815 -0.15743482 -0.32881796 0.079457775
000030 51 e6 2a be 8d 2b ec bb 24 8d d5 3d 8c 22 be bf
       -0.16689421 -0.00720734 0.10427311 -1.4854293
000040 a5 54 85 be 65 33 14 3e 37 0f 67 3e 9f 71 39 bf
       -0.2604114 0.1447273 0.22564398 -0.72439
000050 40 f6 ad bd 80 6c 14 3e 63 2c c2 3d dd aa ce 3d
       -0.08494234 0.14494514 0.09481122 0.10091183
000060 b8 6b 03 3d 61 0a 53 3e c8 e5 f3 bd 1c 8e 8f be
       0.03208515 0.20609428 -0.11909062 -0.28038108
000070 f2 fc ea 3b c8 f3 0f 3d 7e 06 ff 3c 22 75 76 3f
       0.0071712667 0.035144597 0.031131025 0.9627248

fc2.weight f4 [3, 32]
000000 8f 6c f3 3d 12 e8 90 3c 50 99 9b 3c 42 b9 36 3d
       0.1188594 0.017688785 0.018994004 0.04461027
000010 0c e7 0e 3e 69 fa 23 be 87 77 ce 3a 25 3f cf bc
       0.13955325 -0.16013493 0.0015752175 -0.025298664
000020 a8 c9 9b 3c cf 2b ae bd 2f 2f 83 bd 81 5e 80 3c
       0.019017056 -0.085044496 -0.06405484 0.015670063
000030 36 db 90 3c e0 6d 43 3b 65 6f 06 3d 27 15 ed 3c
       0.017682653 0.002982013 0.032821078 0.02894075
000040 1c 28 25 bd 57 4f 92 3d 16 13 2c bd 96 3e 59 bd
       -0.040321454 0.07144039 -0.04201039 -0.053038202
000050 2e b9 28 be 6f 24 cb 3d 71 66 ec bd a8 99 ee bd
       -0.1647689 0.099190585 -0.11542977 -0.11650401
000060 2a 56 ec bd 36 21 ba 3d 77 e7 03 bd 0b 02 e5 3c
       -0.11539872 0.09088366 -0.032203164 0.027955076
000070 8d 37 1e 3d 75 bf 32 be b2 40 9e 3d e5 93 1b 3e
       0.038627196 -0.17455848 0.077271834 0.15193136
000080 71 ca 32 3e 49 1d 4a bd 5e ea 5a bd 2e 0a 04 3b
       0.17460038 -0.049344335 -0.053446166 0.002014767
000090 5f db 11 be 16 ff a6 3d 9b b1 2d 3d d1 7f 63 be
       -0.1424384 0.081541225 0.042405706 -0.22216727
0000a0 55 cd f1 3c 9c a6 c1 bd a7 aa 93 bd 8d 79 02 3d
       0.029516855 -0.09455606 -0.07210284 0.0318542
0000b0 48 78 75 bd 5b 8a 0d 3e 39 60 d0 bc ee 00 27 3e
       -0.059929162 0.1382231 -0.025436508 0.16308948
0000c0 56 23 81 bd b9 39 31 3d ff be 98 bd 5d 8e 8c be
       -0.06305568 0.04326794 -0.074583046 -0.27452365
0000d0 2e 90 2b be 3c f2 1f be 59 59 f2 bd dc 66 ac 3c
       -0.16754219 -0.15619749 -0.11833448 0.02104514
0000e0 90 e2 82 bc aa f2 9d 3c ea 25 c9 3d ea fc 23 3d
       -0.015977174 0.01928075 0.09821685 0.04003612
0000f0 34 7e 90 bb 23 67 6a bd 3e 75 96 bf 7f 84 d2 3b
       -0.004409576 -0.057227265 -1.175453 0.006424486
000100 24 95 51 bc 6a 99 1a 3d 14 fd 4e 3d 1d 39 aa 3d
       -0.012791906 0.037743963 0.050534323 0.08311675
000110 7a 48 29 be d5 e9 1e bd cb fe 35 3d 64 52 6b 3d
       -0.16531554 -0.03879722 0.044432443 0.05745162
000120 a3 54 4f 3c 5b 58 4c bd 4a bb a4 bd 41 0f cf 3c
       0.012654456 -0.04988895 -0.08043535 0.025275828
000130 8a d9 98 bc b9 b2 c8 3d bd 08 ff bd 8b dd da bd
       -0.018658418 0.09799714 -0.124528386 -0.10686787
000140 fa 90 c7 bd f9 ae 86 3d af 14 ca bc 6c 04 0c be
       -0.09744449 0.06576342 -0.024668066 -0.13673562
000150 4d b2 1f 3e 54 af 1e 3d 60 16 0a be 41 f4 b2 bd
       0.1559536 0.038741425 -0.13485098 -0.08737994
000160 a1 96 82 bd 94 d1 10 3d 5d 6e d0 bd db b7 09 bc
       -0.063763864 0.03535612 -0.101773 -0.008405651
000170 14 40 c0 3c 08 5a 89 bd 4d b5 7d bc df 30 87 3d
       0.023468055 -0.06706625 -0.01548512 0.06601118

fc2.bias f4 [3]
000000 3d c2 b9 bf a9 69 e5 bf 35 5a 19 40
       -1.4512402 -1.792287 2.3961308
